…
[34m[1mtrain:[0m /home/azureuser/kawasaki-diseases/classification/Yolo_Data/datasets/train_test_val/train... found 535 images in 2 classes ✅ 
[34m[1mval:[0m /home/azureuser/kawasaki-diseases/classification/Yolo_Data/datasets/train_test_val/val... found 152 images in 2 classes ✅ 
[34m[1mtest:[0m /home/azureuser/kawasaki-diseases/classification/Yolo_Data/datasets/train_test_val/test... found 76 images in 2 classes ✅ 
Overriding model.yaml nc=80 with nc=2

                   from  n    params  module                                       arguments                     
  0                  -1  1      2784  ultralytics.nn.modules.conv.Conv             [3, 96, 3, 2]                 
  1                  -1  1    166272  ultralytics.nn.modules.conv.Conv             [96, 192, 3, 2]               
  2                  -1  2    389760  ultralytics.nn.modules.block.C3k2            [192, 384, 2, True, 0.25]     
  3                  -1  1   1327872  ultralytics.nn.modules.conv.Conv             [384, 384, 3, 2]              
  4                  -1  2   1553664  ultralytics.nn.modules.block.C3k2            [384, 768, 2, True, 0.25]     
  5                  -1  1   5309952  ultralytics.nn.modules.conv.Conv             [768, 768, 3, 2]              
  6                  -1  2   5022720  ultralytics.nn.modules.block.C3k2            [768, 768, 2, True]           
  7                  -1  1   5309952  ultralytics.nn.modules.conv.Conv             [768, 768, 3, 2]              
  8                  -1  2   5022720  ultralytics.nn.modules.block.C3k2            [768, 768, 2, True]           
  9                  -1  2   3264768  ultralytics.nn.modules.block.C2PSA           [768, 768, 2]                 
 10                  -1  1    988162  ultralytics.nn.modules.head.Classify         [768, 2]                      
YOLO11x-cls summary: 176 layers, 28,358,626 parameters, 28,358,626 gradients, 111.0 GFLOPs
Transferred 492/494 items from pretrained weights
wandb: Tracking run with wandb version 0.19.8
wandb: Run data is saved locally in /home/azureuser/kawasaki-diseases/classification/model_training/wandb/run-20250325_163908-3miab7zj
wandb: Run `wandb offline` to turn off syncing.
wandb: Syncing run Yolo v11-foot_stages-augmented
…
